LSTMpre_sys/backend/src/outputs/models/best_model.pth (torch, 807849 bytes, 9 tensors)

lstm.weight_ih_l0 f4 [512, 5]
0	0x3d3e028d	0.04638915
1	0x3d4032a4	0.046923295
2	0x3d7930b2	0.060837455
3	0x3d49ad56	0.04923757
4	0xbcbf6784	-0.02336479
5	0x3d7783d8	0.06042847
6	0xbd251d6a	-0.040311255
7	0x3d520130	0.051270664
8	0x3dcd645c	0.10028908
9	0xbb779f13	-0.0037784025
10	0x3c922541	0.01784003
11	0x3dcbf815	0.09959427
12	0xbd0cbd10	-0.03435999
13	0xbd3c33db	-0.04594789
14	0xbd5aae9b	-0.053389173
15	0x3ba328fb	0.0049792505
16	0xbcc8e8bd	-0.02452504
17	0x3d8aa0f5	0.06768981
18	0xbb0f27eb	-0.0021843861
19	0x3db69faa	0.08917172
20	0xbd2f2c19	-0.042766664
21	0x3d909423	0.07059505
22	0x3d3c7b7c	0.0460162
23	0x3cd88d01	0.026434423
24	0x3dd053dd	0.10172246
25	0x3d57bb74	0.052669004
26	0x3de7d40f	0.11319744
27	0xbd069a71	-0.03286213
28	0x3deea888	0.116532385
29	0x3d01a8db	0.031655174
30	0x3d79fddd	0.06103312
31	0xbd2d0f0b	-0.042250674
32	0xbd96beee	-0.07360636
33	0x3d816b59	0.06319303
34	0xbd9e06e9	-0.07716162
35	0x3e3a67ee	0.18203709
36	0x3e5ea763	0.2174354
37	0x3da937cc	0.082625955
38	0x3e17e8f6	0.14834961
39	0x3ece55a0	0.40299702
40	0xbd569e1b	-0.052396875
41	0x3d92ec9a	0.071740344
42	0x3dc8053d	0.09766624
43	0x3cf6f149	0.03014435
44	0xbc74c010	-0.014938369
45	0x3d33496c	0.043771192
46	0xbdd163b0	-0.10224092
47	0xbd078a13	-0.033090662
48	0x3c159f39	0.0091322
49	0xbd96b093	-0.073578976
50	0x3ddec4c0	0.10877371
51	0x3d954601	0.07288743
52	0xbcfed9d0	-0.03110972
53	0xbbd26133	-0.0064202785
54	0x3bf3d2ba	0.007440892
55	0xbd0d0f6a	-0.034438528
56	0x3d2cb887	0.042168166
57	0x3d15ed48	0.036603242
58	0x3d48dcc5	0.049038667
59	0x3d95c411	0.07312787
60	0xbd6ee2c1	-0.058321718
61	0x3d959110	0.07303059
62	0xbcc1256e	-0.023577418
63	0x3d638dd6	0.055555187
64	0x3da46f7c	0.080290765
65	0x3e5e47fe	0.2170715
66	0x3dfd282b	0.12361177
67	0x3dc574d6	0.09641425
68	0x3e0e32a3	0.13886504
69	0x3e7a4ff7	0.24444567
70	0x3c88f80c	0.01671984
71	0x3d6d78db	0.057976585
72	0xbcd9e6e5	-0.026599357
73	0x3dc52e0a	0.09627922
74	0xbe41991b	-0.18906061
75	0x3c44da70	0.01201497
76	0x3c496b1a	0.012293601
77	0xbd1d919b	-0.03846894
78	0xbd21231d	-0.039340127
79	0xbcb2972f	-0.021800606
80	0x3d5a89fe	0.053354256
81	0x3c09a651	0.008401469
82	0xbc98bd0b	-0.01864483
83	0x3e1dc1c3	0.15405945
84	0x3c53d14b	0.012928317
85	0x3d0c1119	0.034195993
86	0x3df21a27	0.118213944
87	0xbd276e75	-0.040876824
88	0x3e0a4eb8	0.13506591
89	0xbbc0ebf7	-0.005887504
90	0xbcae0beb	-0.021245917
91	0x3d917f42	0.071043506
92	0x3c21af6e	0.009868486
93	0xbc099b0e	-0.008398784
94	0xbd2bff19	-0.041991327
95	0xbca012f1	-0.019540282
96	0x3c994e23	0.018714016
97	0x3e0dd71c	0.13851589
98	0x3d8f85b8	0.07007927
99	0x3cd620b6	0.026138645
100	0x3da7a381	0.08185483
101	0xbd46cae3	-0.04853333
102	0x3d1503bc	0.036380515
103	0x3d573f0e	0.052550368
104	0x3d9da21d	0.07696936
105	0x3dc4f749	0.096174784
106	0xbca78dbf	-0.020453332
107	0x3d3e1950	0.04641086
108	0x3d4f74d4	0.050648525
109	0x3d1c0ae5	0.038096327
110	0x3d5cf04a	0.053940095
111	0x3df47c0e	0.11937724
112	0x3db6ec3a	0.089317754
113	0x3de33788	0.11094576
114	0xbc9dc387	-0.019258274
115	0x3d948d38	0.07253498
116	0xbbfebbfe	-0.0077738753
117	0x3ddf56b5	0.1090521
118	0x3dccec57	0.10006016
119	0x3e55a476	0.20863518
120	0x3be9d51a	0.0071359994
121	0x3c5d0c2f	0.013491674
122	0x3dc27bef	0.09496295
123	0x3daa30e7	0.08310109
124	0x3d579d3f	0.052640196
125	0x3d0da25e	0.034578674
126	0x3cc0f70f	0.023555307
127	0xbd150374	-0.036380246
128	0x3d92b06e	0.071625575
129	0x3d4ac97b	0.049508553
130	0x3d374d5b	0.044751506
131	0x3ca0865c	0.019595318
132	0xbabfa516	-0.0014621343
133	0x3d126adc	0.03574644
134	0x3cfb1b8e	0.030652788
135	0x3c7d1486	0.015446788
136	0x3d33dc20	0.0439111
137	0xbd336e6b	-0.043806475
138	0x3dc2348b	0.09482678
139	0x3cd61713	0.02613405
140	0xbd827fd0	-0.063720345
141	0xbd81ee0a	-0.063442305
142	0x3c2dbb59	0.010603749
143	0xbd04541a	-0.032306768
144	0xba9140d1	-0.0011081939
145	0xbd3c53b8	-0.045978278
146	0xbd277026	-0.040878437
147	0x3bab4b5b	0.005227489
148	0x3d72303b	0.059128027
149	0x3a2887b7	0.00064289145
150	0x3d38166d	0.044943262
151	0x3d804d65	0.06264762
152	0x3d4d0f22	0.05006326
153	0x3c9b1551	0.018931063
154	0x3ceb6325	0.0287338
155	0x3d8d90a4	0.06912354
156	0x3ccc00ee	0.024902787
157	0xbc0067b3	-0.007837224
158	0xbd0adb65	-0.033900637
159	0x3d81bb34	0.06334534
160	0x3d89409f	0.067017786
161	0xbbda7e56	-0.0066678924
162	0x3cd93f22	0.026519362
163	0x3d72ddfa	0.059293725
164	0x3d983678	0.07432264
165	0x3e047da4	0.12938553
166	0x3d8e8f21	0.069608934
167	0x3d48dd63	0.049039256
168	0x3d1eed67	0.038800623
169	0x3d13c27a	0.03607414
170	0xbbe7d61c	-0.0070750844
171	0x3d828e11	0.06374753
172	0x3c40ffea	0.011779765
173	0xbc606ec4	-0.013698284
174	0x3d34129e	0.043963067
175	0x3d20591c	0.03914748
176	0x3d983c91	0.07433427
177	0x3e005f7f	0.12536429
178	0x3d17cd0d	0.037060786
179	0xbd046aac	-0.032328293
180	0x3ddd0c82	0.10793401
181	0x3d30f11f	0.0431987
182	0x3d150232	0.036379047
183	0x3d6ce82b	0.0578386
184	0x3d3a8452	0.045536347
185	0x3dc1416b	0.094363056
186	0x3e2b4706	0.16726312
187	0x3dfde77a	0.12397666
188	0x3e4f3e24	0.20238549
189	0x3da96818	0.082718074
190	0x3e623e59	0.22094096
191	0x3e73898e	0.23782942
192	0x3ea263c3	0.31716737
193	0x3e6e3fd5	0.23266537
194	0x3efd4396	0.49465626
195	0x3d829f4a	0.06378038
196	0x3dd531a3	0.10409858
197	0x3d9138ba	0.07090898
198	0xbcef1808	-0.029186264
199	0xbd818a16	-0.06325166
200	0x3dc4b5eb	0.096050106
201	0x3cdad94f	0.026714949
202	0x3d45f721	0.048331384
203	0x3da12af9	0.078695245
204	0x3e1c7faa	0.15283075
205	0xbdc12a9a	-0.09431954
206	0x3c79f33f	0.015255748
207	0xbcd1f041	-0.025627257
208	0xbd2cc98c	-0.042184398
209	0x3e0d70fb	0.1381263
210	0x3d826e60	0.063687086
211	0x3d9b82ef	0.07593333
212	0x3dbb19c8	0.09135777
213	0xbca71951	-0.020397814
214	0xbb3a40de	-0.0028420012
215	0x3db50461	0.08838726
216	0xbcf6a32c	-0.030107103
217	0x3d94bebe	0.07262944
218	0xbd123627	-0.035696175
219	0xbd7f8df1	-0.062391225
220	0x3d960825	0.07325772
221	0x3d08d941	0.033410314
222	0x3d805bbb	0.06267496
223	0x3d280951	0.04102451
224	0x3c2a7650	0.010404184
225	0x3ef28ccc	0.47373044
226	0x3edf43d1	0.43606427
227	0x3eda1dea	0.42600948
228	0x3edd2f6e	0.43200248
229	0x3ef234ce	0.47305912
230	0xbd05f84b	-0.032707494
231	0xbd3be225	-0.045869965
232	0xbda48e08	-0.08034903
233	0x3cce9f80	0.02522254
234	0xbd0d45b1	-0.03449029
235	0x3c9194a7	0.017771078
236	0x3ca52aaf	0.020161955
237	0x3d861ecf	0.06548845
238	0xbd0a671b	-0.033789735
239	0xbbb79a2e	-0.0056030964
240	0x3db11cee	0.08648096
241	0x3d114aee	0.03547185
242	0xbd2606c3	-0.040533792
243	0x3da042d0	0.078252435
244	0xbd0aeb68	-0.033915907
245	0x3dcdfb3e	0.10057686
246	0x3da9a511	0.08283437
247	0x3d6f5c2e	0.05843752
248	0xbc564434	-0.013077784
249	0x3c87ab9a	0.016561318
250	0x3e38a69f	0.18032311
251	0x3e4656ab	0.19368999
252	0x3e09e4ac	0.13466138
253	0x3e3c461b	0.18386118
254	0x3e367f87	0.17822085
255	0x3d934ba3	0.07192161

lstm.weight_hh_l0 f4 [512, 128]
0	0x3d737ce2	0.05944527
1	0xbc9ea29f	-0.019364653
2	0xbc06974e	-0.008214785
3	0xbd8b6cd6	-0.06807868
4	0x3c5d4d0e	0.013507141
5	0xbd29d45c	-0.041462287
6	0x3db63d11	0.08898366
7	0x3c854244	0.01626695
8	0x3d3c5e3f	0.045988318
9	0xbda73af0	-0.08165538
10	0x3da4f30c	0.0805417
11	0x3d4f5944	0.05062224
12	0xbc05873d	-0.008149919
13	0xbda156de	-0.07877897
14	0xbb305084	-0.002690346
15	0x3da3469e	0.079724535
16	0xbd882acc	-0.06648788
17	0xbc89b856	-0.016811531
18	0xbd23fccc	-0.040036008
19	0xbd94a4f3	-0.07258024
20	0xbd99f7f4	-0.075179964
21	0xbca5f031	-0.020256134
22	0xbcb2aa7c	-0.021809809
23	0xbde23f35	-0.11047212
24	0xbca4bce2	-0.020109598
25	0xbd5553c2	-0.05208183
26	0x3c00886e	0.007845027
27	0x3db78aed	0.08962045
28	0x3d9593ef	0.07303607
29	0x3c934383	0.017976528
30	0x3db991a0	0.09060979
31	0xbcd8f6dd	-0.026484901
32	0x3d19099a	0.037362672
33	0xbd6e11c1	-0.0581224
34	0x3d14ab6d	0.036296297
35	0xb96d8488	-0.00022651453
36	0xbd403d77	-0.046933617
37	0x3d04d980	0.032433987
38	0x3da240d8	0.07922524
39	0x3d965716	0.07340829
40	0x3d3ae0e6	0.045624636
41	0x3d711e7e	0.05886697
42	0x3dbf671e	0.0934584
43	0x3d77c74d	0.060492802
44	0xbd6e84d6	-0.05823215
45	0xbd4bcbec	-0.049755022
46	0xbda6d9d7	-0.081470184
47	0xbcd89248	-0.02643694
48	0x3d663cfc	0.056210503
49	0x3d134f84	0.035964504
50	0xbd66894e	-0.056283288
51	0xbc9f73c5	-0.019464383
52	0x3bafebae	0.0053686714
53	0xbd90f27e	-0.07077502
54	0x3d1fc388	0.039004833
55	0x3bd6da75	0.006556804
56	0xbd5d8163	-0.05407847
57	0xbc5c85ad	-0.013459605
58	0xbd9a19f8	-0.075244844
59	0xbd651d2e	-0.05593603
60	0xbd0ced75	-0.034406144
61	0x3d83bb0f	0.06432163
62	0xbdb41dce	-0.08794747
63	0x3c1def20	0.009639531
64	0x3c471a00	0.012152195
65	0x3d9f1898	0.07768363
66	0xba885585	-0.0010401463
67	0xbc8b04f5	-0.016970137
68	0x3d630162	0.05542124
69	0x3c1c29cc	0.0095314495
70	0xbd1c3f4a	-0.038146295
71	0xbd943fb4	-0.07238713
72	0xbad0aa09	-0.0015919815
73	0x3d8e8517	0.069589786
74	0x3dac9bb3	0.08428135
75	0x3d6c7776	0.057731114
76	0xbd9bde5f	-0.07610773
77	0x3cb17e9c	0.021666817
78	0x3d506ae2	0.05088318
79	0xbd348178	-0.044068784
80	0xbcc97421	-0.024591507
81	0xbd40c9cd	-0.047067452
82	0x3d97a04d	0.07403622
83	0xbb89778b	-0.004195159
84	0x3da0e13a	0.078554586
85	0xbce3b04f	-0.027794031
86	0x3c057696	0.008145949
87	0x3c5f4d54	0.013629276
88	0x3d0b63e9	0.03403083
89	0xbd267299	-0.040636633
90	0xbd937f97	-0.0720207
91	0x3bfe4e67	0.007760811
92	0x3cb40e0f	0.02197936
93	0x3db68d8c	0.08913717
94	0xbd850653	-0.06495347
95	0xbd39cd38	-0.045361727
96	0xbd76bc49	-0.060238156
97	0x3da00a53	0.07814469
98	0xbd303789	-0.043021712
99	0x3c868a95	0.016423503
100	0x3d3705a9	0.044683132
101	0xbd8a277a	-0.06745811
102	0xbd84deb8	-0.06487793
103	0xbd8ec2da	-0.06970759
104	0xbbbc5b2a	-0.0057481723
105	0xbbeca444	-0.0072217304
106	0xbda6a6d9	-0.081372924
107	0x3da0ede7	0.07857876
108	0xbb11842c	-0.0022204025
109	0xbcec2301	-0.028825285
110	0x3d2edb2c	0.042689487
111	0xbd7b86f9	-0.061408017
112	0x3d9c3c8a	0.076287344
113	0xbdafe266	-0.08588104
114	0xbd213bb7	-0.03936359
115	0x3be8e8d7	0.007107835
116	0x3ce2f398	0.027704045
117	0x3cfbbaa6	0.03072865
118	0xbd25b0c0	-0.040451765
119	0xbba0bbfa	-0.004905221
120	0x3bfc6e0b	0.007703548
121	0xbd0fac38	-0.03507635
122	0x3ca2e354	0.01988379
123	0x3d40e2ea	0.047091402
124	0xbab588b3	-0.0013849944
125	0xbd278504	-0.040898338
126	0xbba6bda4	-0.005088525
127	0xbd8e488e	-0.069474325
128	0xbdbbbc69	-0.09166796
129	0xbcf3dcd2	-0.029768381
130	0xbdbb442f	-0.09143864
131	0xbd5c1cc3	-0.053738367
132	0xbd6842cd	-0.05670433
133	0x3caa8a1c	0.020817809
134	0xbc6b9acd	-0.014380169
135	0xbd66e4b4	-0.056370452
136	0xbd23406e	-0.039856367
137	0x3ce78822	0.028263155
138	0xbd45f5f5	-0.048330266
139	0xbd57b275	-0.052660424
140	0xbcf7ab61	-0.030233087
141	0x3d36302f	0.044479545
142	0x3d90dca7	0.07073336
143	0xbd6def93	-0.058089804
144	0x3dd98327	0.106207184
145	0xbdf33cc8	-0.118768275
146	0x3d909f61	0.07061649
147	0xbc85a51d	-0.016314084
148	0x3be301e0	0.0069277138
149	0x3ca6c8b2	0.02035937
150	0xbd79bdf7	-0.06097218
151	0xbdc61148	-0.09671265
152	0x3dad6eda	0.08468409
153	0xbd103228	-0.035204083
154	0xbcb9676a	-0.02263232
155	0xbcbff8c3	-0.023434049
156	0xbc91dc44	-0.017805226
157	0x3e05b916	0.13058886
158	0xbd78cd83	-0.060742866
159	0xbc485e75	-0.012229552
160	0xbd3e5e7b	-0.046476822
161	0x3cbb932a	0.022897322
162	0x3a8888d6	0.0010416757
163	0xbc8969e0	-0.016774118
164	0xbcc31137	-0.02381192
165	0x3cef746e	0.029230323
166	0x3dc1e27c	0.094670266
167	0xbd9fd628	-0.07804519
168	0x3d2c7c50	0.04211074
169	0x3da240b4	0.079224974
170	0x3d1f7fcd	0.03894024
171	0xbda4eb38	-0.08052677
172	0xbd632f58	-0.055465072
173	0x3c9650dd	0.018349105
174	0x3a5ca7fa	0.00084173644
175	0xbda59664	-0.08085325
176	0xbd036f16	-0.03208836
177	0xbd909780	-0.07060146
178	0xbd81afb3	-0.0633234
179	0xbd829449	-0.063759394
180	0xbcabf3b0	-0.020990223
181	0xbc7f9fbd	-0.015602049
182	0xbd6fb7af	-0.058524784
183	0x3d9f18ba	0.07768388
184	0x3cea9f62	0.028640453
185	0xbd2413d9	-0.04005799
186	0xbcb4f1ff	-0.022088049
187	0xbd73815a	-0.05944953
188	0x3d8cee6f	0.06881415
189	0x3d55b07a	0.052170254
190	0xbd8bd8e5	-0.06828479
191	0xbda84cc3	-0.08217766
192	0x3d8bdba9	0.06829006
193	0xbd452680	-0.04813242
194	0xbb202f6d	-0.002444233
195	0xbe0c45cb	-0.13698499
196	0xbc56c3d8	-0.013108216
197	0x3d20508f	0.039139327
198	0x3d45d1fc	0.04829596
199	0xbda0973d	-0.078413464
200	0x3cac98c3	0.021068936
201	0x3c11501f	0.0088692
202	0xbd583061	-0.052780513
203	0x3de8e02d	0.11370883
204	0x3cba5b59	0.022748636
205	0xbcbfcdfe	-0.023413654
206	0xbd97b539	-0.07407612
207	0xbccf78e6	-0.025326204
208	0x3e0917f6	0.13388047
209	0x3c0b883e	0.008516369
210	0xbd512b7c	-0.05106686
211	0x3c3e034b	0.011597465
212	0xbbc7f64f	-0.0061023603
213	0x3da3605a	0.07977362
214	0x3caff70b	0.021480104
215	0x3a8e2622	0.0010845105
216	0xbc36826f	-0.011139496
217	0x3d27384f	0.040825184
218	0xbc91a768	-0.01778002
219	0x3d48b080	0.04899645
220	0xbd8497a7	-0.06474238
221	0xbd183562	-0.037160285
222	0xbd044d52	-0.0323003
223	0x3de0f53d	0.109842755
224	0x3c35fefb	0.011108155
225	0x3c902b13	0.017598664
226	0x3d913edd	0.07092068
227	0x3d648e49	0.055799756
228	0x3d8d7e22	0.069088235
229	0xbddbbe0a	-0.107296064
230	0x3d61302f	0.054977592
231	0x3d03f426	0.03221526
232	0xbd595295	-0.053057272
233	0xbdb48106	-0.08813672
234	0xbd1c882f	-0.038215812
235	0x3d0fa075	0.035065133
236	0x3bbe9609	0.0058162254
237	0x3ba291cf	0.0049612294
238	0xbca4d993	-0.020123279
239	0xbdbbf111	-0.09176839
240	0xbc81f33a	-0.01586305
241	0xbd9c1242	-0.0762067
242	0xbd0d7889	-0.03453878
243	0x3d1401a4	0.036134377
244	0xbdd30136	-0.10302965
245	0x3d913d59	0.07091779
246	0xbddc44a5	-0.107552804
247	0x3d051808	0.03249362
248	0xbd589617	-0.05287751
249	0x3c5f07aa	0.013612667
250	0xbc0542fe	-0.008133648
251	0x3d485709	0.04891113
252	0xbdc8bde0	-0.09801841
253	0xbdd9486b	-0.10609516
254	0xbd91dce7	-0.07122212
255	0xbd3dbd98	-0.04632339

lstm.bias_ih_l0 f4 [512]
0	0x3dbbc76e	0.091688976
1	0x3da7ef8f	0.08199989
2	0x3db6abeb	0.089195095
3	0x385953e5	5.1814965e-05
4	0xbc9cc1ca	-0.019135375
5	0xbd171754	-0.03688748
6	0x3d64dd0f	0.05587488
7	0x3e947b8b	0.29000506
8	0x3d060142	0.032716043
9	0x3d4602b6	0.04834243
10	0x3d2f9a13	0.042871546
11	0xbc19a745	-0.009378259
12	0xbd5227a3	-0.05130733
13	0x3e82e403	0.25564584
14	0xbd415ea4	-0.047209397
15	0xbd9fd06a	-0.07803424
16	0xbb112b7b	-0.002215116
17	0xbd17db1c	-0.037074193
18	0xbd9d186f	-0.07670676
19	0xbc57fd18	-0.013182901
20	0xbb71c5f6	-0.0036891676
21	0x3ca65ad1	0.020306977
22	0xbd790d91	-0.060803954
23	0x3daad0e8	0.08340627
24	0x3cf019db	0.029309204
25	0x3d2bd43d	0.041950453
26	0xbda2c568	-0.079478085
27	0xbd10ed9d	-0.035382856
28	0xbd27ab53	-0.040934872
29	0xbdaba1e1	-0.08380485
30	0x3d2520cb	0.040314477
31	0xbc4291fe	-0.011875628
32	0x3d452dcd	0.048139382
33	0x3e35cddd	0.17754312
34	0x3dc22b46	0.0948091
35	0xbd5f3e2a	-0.054502644
36	0x3d806742	0.06269695
37	0xb9f4a0e5	-0.00046659182
38	0x3f1d0069	0.6132875
39	0xbdb0c966	-0.08632164
40	0x3de2c6db	0.11073085
41	0xbd4feb6e	-0.050761633
42	0x3d452002	0.04812623
43	0x3ce7e9e1	0.028309764
44	0xbd6bfb30	-0.057612598
45	0x3e9ecd2a	0.31015903
46	0xbbd96fb8	-0.0066356324
47	0xbc46bd46	-0.012130087
48	0x3d3b686e	0.04575389
49	0x3d8bbfbe	0.06823681
50	0x3e6bbdf5	0.23021682
51	0x3c7e530f	0.015522732
52	0xbd1dc347	-0.03851631
53	0xbc22683c	-0.009912547
54	0x3d7cd6e6	0.06172838
55	0x3db8de00	0.09026718
56	0x3d95ad7c	0.0730848
57	0xbc5c60ec	-0.013450842
58	0x3d1fc728	0.03900829
59	0xbc67d740	-0.014150441
60	0x3e4a8db8	0.19780624
61	0x3d1bef49	0.038069997
62	0xbb99605a	-0.0046806755
63	0x3e9e28a1	0.30890372
64	0x3d20fde1	0.039304618
65	0xbd4b262e	-0.049596958
66	0x3d1eb87c	0.038750157
67	0x3e1e9f2b	0.15490405
68	0xbd9e2fb1	-0.0772394
69	0x3bf5a08e	0.0074959463
70	0xbbf243c5	-0.0073933327
71	0x3bfe412e	0.007759235
72	0x3bd0b9bb	0.006369797
73	0xbd62dccb	-0.055386346
74	0xbda36c11	-0.079795964
75	0x3bcfacdd	0.0063377456
76	0x3a950388	0.001136885
77	0x3b4bed44	0.0031116763
78	0xbd1b4519	-0.037907694
79	0x3da5ea79	0.08101363
80	0x3c4b0d1a	0.01239326
81	0x3db8df67	0.090269856
82	0xbda75b14	-0.08171669
83	0xbd8034c6	-0.06260066
84	0x3e1a6346	0.15076932
85	0xbda74eb8	-0.08169311
86	0xbc9140df	-0.017731128
87	0x3d5a1012	0.053237982
88	0x3da92921	0.08259798
89	0xbca1a911	-0.019733937
90	0x3d1aa9e9	0.037759695
91	0x3d95733d	0.072973706
92	0xbd942fa8	-0.07235652
93	0x3d6640bc	0.05621408
94	0x3d63e717	0.055640306
95	0xbd8854f2	-0.06656827
96	0xbbc5586d	-0.006022504
97	0x3e740b24	0.23832375
98	0x3d3e9ac8	0.04653433
99	0xbc0597cc	-0.008153867
100	0x3dab8288	0.08374506
101	0xbd6d02f4	-0.057864144
102	0x3d93ade3	0.07210901
103	0xbc70065c	-0.014649954
104	0x3dae2e56	0.08504932
105	0x3c7f5885	0.01558507
106	0xbd41628e	-0.04721313
107	0xbdbb706e	-0.09152304
108	0x3c371f38	0.011176877
109	0x3c2b53de	0.010457007
110	0xbcbe39a3	-0.023220843
111	0x3d514ac2	0.051096685
112	0xbd4d82d6	-0.050173603
113	0x3dd2330c	0.10263643
114	0x3d94727d	0.072483994
115	0x3b0e81f0	0.002174493
116	0x3d3b5480	0.045734882
117	0x3d09e4e8	0.033665568
118	0x3d146cd2	0.03623659
119	0x3db21701	0.08695794
120	0x3de0149f	0.10941433
121	0xbda823cf	-0.08209955
122	0x3cc2fd1d	0.023802334
123	0x3b32743a	0.002722992
124	0x3daaaeb8	0.08334106
125	0x3d5c2e24	0.05375494
126	0xbdd552c0	-0.10416174
127	0xbd0d7e78	-0.034544438
128	0xba3feedb	-0.0007321664
129	0xbe239864	-0.15976101
130	0xbd2b98bc	-0.041893706
131	0xbd934e65	-0.07192687
132	0x3cdae8cd	0.026722336
133	0x3d0dbd3d	0.0346043
134	0xbcbb1fed	-0.022842372
135	0xbe1e921c	-0.15485424
136	0xbb2b9251	-0.002617974
137	0xbb4449bb	-0.0029951173
138	0x3c3380b1	0.010955975
139	0x3b2266a5	0.002478042
140	0xbd0b3502	-0.0339861
141	0xbde42e43	-0.11141636
142	0xbdd017e0	-0.10160804
143	0x3d13b48e	0.036060862
144	0xbd854955	-0.065081276
145	0xbd4a70b7	-0.0494239
146	0x3bd9d499	0.006647658
147	0xbd5e6902	-0.054299362
148	0xbcdf005f	-0.027221857
149	0xbcf6715e	-0.030083355
150	0x3b80c83a	0.003930119
151	0x3cd176a5	0.02556927
152	0xbcc1d345	-0.023660311
153	0xbd8e3aed	-0.06944833
154	0xbbdd7fe0	-0.0067596287
155	0xbd4bca50	-0.049753487
156	0x3cd7b81b	0.026332906
157	0x3d460829	0.048347626
158	0xbd78511c	-0.060624227
159	0xbdb1d71b	-0.08683606
160	0xbd710efc	-0.05885218
161	0xbc1d38e4	-0.009596083
162	0xbc7778f3	-0.01510452
163	0x3d5c519d	0.05378877
164	0xbdb5c9e3	-0.088763975
165	0xbe2550b0	-0.16144061
166	0xbe91459c	-0.2837342
167	0x3ce7e10b	0.028305551
168	0xbaaad594	-0.0013033622
169	0xbb017128	-0.0019751284
170	0x3d5b7d51	0.053586308
171	0xbc9c8c5a	-0.019109894
172	0xbddaf34e	-0.10690938
173	0xbe8e9c18	-0.27853465
174	0xbb521562	-0.0032056202
175	0x3cb869e2	0.022511426
176	0xbc6b6ea8	-0.014369644
177	0x3c731c43	0.014838281
178	0xbdcc4874	-0.09974757
179	0xbcdb3bca	-0.026761908
180	0x3ba76a25	0.005109089
181	0xbd17708b	-0.036972564
182	0xbc99691c	-0.018726878
183	0xbd0e11e4	-0.03468503
184	0xbc1b8da7	-0.009494222
185	0x3cb9b0df	0.022667347
186	0xbd46b9d6	-0.04851707
187	0x3d311a7a	0.04323814
188	0xbe3efd97	-0.18651424
189	0xbc71b32e	-0.014752192
190	0x3d764ef0	0.060133874
191	0xbe89eac7	-0.26936933
192	0x3da41ca8	0.08013278
193	0x3d1fc676	0.039007626
194	0x3d9f6099	0.077820964
195	0xbe34cf95	-0.17657311
196	0xbc3fc9f2	-0.011705862
197	0xbd9591b1	-0.07303179
198	0xbdb67901	-0.089097984
199	0xbcefc3e2	-0.029268209
200	0x3d8dad6a	0.06917842
201	0xbb8dc94e	-0.004326976
202	0x3ceb5b16	0.028729957
203	0x3da37916	0.0798208
204	0xbd46d004	-0.048538223
205	0xbdc2f41b	-0.09519216
206	0xbc84cb76	-0.016210299
207	0xbd161de7	-0.03664961
208	0x3d2363e9	0.039890204
209	0xbdb0e7a6	-0.086379334
210	0x3d40c712	0.04706485
211	0x3d329344	0.043597475
212	0xbe2e6b08	-0.17033017
213	0x3d2da309	0.04239181
214	0xbdb1bfb7	-0.08679145
215	0xbd151252	-0.036394425
216	0xbce466ee	-0.027881112
217	0xbd643571	-0.05571503
218	0xbd641ad1	-0.055689637
219	0xbda63c30	-0.081169486
220	0x3cf1ba78	0.02950786
221	0x3da148d1	0.07875217
222	0x3c92ca72	0.0179188
223	0x3d6e1d95	0.05813368
224	0xbbe6e21c	-0.0070459973
225	0xbe593cbc	-0.21214575
226	0x3d980ceb	0.07424339
227	0x3d6e9fae	0.05825775
228	0xbd1fc906	-0.03901007
229	0xbd82ce5e	-0.06387018
230	0x3d208504	0.039189354
231	0x3d0a46c7	0.033758905
232	0xbce4def4	-0.027938344
233	0x3d4ee69d	0.0505129
234	0xbcdfb11d	-0.027306134
235	0xbca6832a	-0.020326216
236	0x3d224c74	0.039623693
237	0xbda7ecc5	-0.08199457
238	0x3cb4678e	0.022022035
239	0x3d63c15e	0.05560433
240	0x3d42cace	0.04755669
241	0xbda0175d	-0.07816956
242	0xbd551846	-0.052025102
243	0x3d2a1d27	0.041531708
244	0xbc9cc7a8	-0.019138172
245	0x3cfbd6bb	0.03074204
246	0xbd73f97f	-0.05956411
247	0xbd5a3b13	-0.053278994
248	0xbd80c5f2	-0.06287755
249	0xbd32d24f	-0.043657597
250	0xbd5b5087	-0.053543594
251	0xbd593a6a	-0.053034224
252	0xbd979511	-0.07401479
253	0xbda9afca	-0.08285482
254	0xbd2b577a	-0.04183147
255	0xba441c3d	-0.00074810145

lstm.bias_hh_l0 f4 [512]
0	0x3ddb840a	0.10718544
1	0xbd70b26d	-0.05876391
2	0xbd146743	-0.03623129
3	0x3dbd5ef1	0.09246624
4	0x3da18c36	0.07888071
5	0xba91db3d	-0.001112796
6	0x3cae4e6f	0.021277634
7	0x3e8f0081	0.27930072
8	0xbd169c91	-0.036770407
9	0xbd96525b	-0.07339927
10	0x3da19fc2	0.078917995
11	0x3e1128bd	0.14175697
12	0x3d362fc4	0.044479147
13	0x3e5253f2	0.20539835
14	0x3cb8ced2	0.022559557
15	0xbc9daed4	-0.019248404
16	0xbdb1fbf5	-0.08690635
17	0xbcaf3d61	-0.021391572
18	0x3c61fa3a	0.013792569
19	0x3dbd9ae4	0.09258059
20	0x3db414c9	0.08793027
21	0xbda3f725	-0.080061235
22	0x3daa33a7	0.08310633
23	0x3de60a7d	0.11232469
24	0x3cd6e28b	0.026231071
25	0xbd2e3cbb	-0.042538386
26	0x3a2f056f	0.000667653
27	0xbc37f8ec	-0.011228781
28	0xbcb41f5d	-0.021987611
29	0xbd18cc13	-0.037303995
30	0x3db8de28	0.09026748
31	0x3d03e6e9	0.032202635
32	0x3c82dc8d	0.015974307
33	0x3dc4b98a	0.09605701
34	0x3dd01520	0.10160279
35	0xbb5e7861	-0.0033946263
36	0xbd77c2aa	-0.06048838
37	0x3e170840	0.14749241
38	0x3f1aa9a4	0.604151
39	0xbd94e7de	-0.07270788
40	0x3d85b872	0.06529321
41	0x3cdeabe5	0.027181575
42	0x3dece730	0.11567533
43	0x3d8369d4	0.064166695
44	0x3cc6333d	0.024194354
45	0x3ec996e3	0.3937293
46	0xbd2d95ee	-0.042379312
47	0xbd97c25b	-0.07410117
48	0x3c95d901	0.018291952
49	0xbd8323d9	-0.06403322
50	0x3e748a29	0.23880829
51	0xbd0c2a37	-0.034219947
52	0xbd1f57b3	-0.038901996
53	0x3d9ac1af	0.075564735
54	0x3b3a9598	0.0028470512
55	0x3dce36fc	0.10069081
56	0x3d742350	0.05960399
57	0xbdb9444a	-0.09046228
58	0x3d354934	0.044259265
59	0x3d5dd97b	0.054162484
60	0x3e456dd8	0.19280183
61	0xbd3be841	-0.04587579
62	0x3c65bf4d	0.01402266
63	0x3edfc703	0.4370652
64	0x3dcff949	0.10154969
65	0xbd69d313	-0.05708606
66	0xbcb0ba4f	-0.021573214
67	0x3e1943a9	0.14967217
68	0x3d21202e	0.03933733
69	0x3dae10f0	0.08499324
70	0x3def6aee	0.11690317
71	0xbd088f5a	-0.033339836
72	0xbc0c19e5	-0.008551096
73	0x3da36048	0.079773486
74	0xbcf67377	-0.030084355
75	0xbdb217b7	-0.086959295
76	0x3ccae31c	0.024766497
77	0xbcfbd560	-0.030741394
78	0x3db9ee23	0.09078624
79	0x3d807fa8	0.062743485
80	0xbbea2c32	-0.007146382
81	0xbd9a332b	-0.07529291
82	0xbd144c85	-0.036205787
83	0xbd886940	-0.066607
84	0x3e12deef	0.14342855
85	0xbd939ff7	-0.07208245
86	0xbd7e35e2	-0.062063105
87	0xbc70c709	-0.014695891
88	0x3de4bf0a	0.1116925
89	0x3d7b26e2	0.06131638
90	0x3d21c375	0.039493043
91	0x3d76678d	0.060157347
92	0x3cc77fb0	0.024352878
93	0x3daf2ff2	0.08554067
94	0x3d73fd60	0.05956781
95	0x3c06edd4	0.008235414
96	0xbd41b555	-0.047292072
97	0x3e6417f5	0.22274764
98	0x3b80eee2	0.003934727
99	0xbc2593eb	-0.010106067
100	0x3db4df96	0.08831708
101	0xbb764ff8	-0.0037584286
102	0x3d5e9646	0.05434253
103	0xbd918c88	-0.07106882
104	0x3cc68ea1	0.024237933
105	0xbd56d765	-0.05245151
106	0xbd9961a5	-0.07489327
107	0xbc3ffbe7	-0.011717773
108	0x3c86a02a	0.016433794
109	0x3d778fc2	0.060439833
110	0xbdd42adc	-0.10359737
111	0xbd66d730	-0.056357563
112	0xbd1918e0	-0.03737724
113	0x3ddb47cc	0.107070535
114	0xbc29472b	-0.010331909
115	0xbc04dd76	-0.008109441
116	0x3d22642c	0.039646313
117	0xbd1127ac	-0.035438225
118	0x3c0a81e4	0.00845382
119	0x3cf8a07e	0.030349966
120	0xbbb0093c	-0.0053721946
121	0xbcdb4075	-0.026764134
122	0x3dcfb763	0.101424
123	0x3d8a04f8	0.06739229
124	0x3cf3c966	0.02975912
125	0x3d9fab0e	0.07796298
126	0x3cb34f4f	0.021888403
127	0xbc73ea2e	-0.014887376
128	0xbcc8aeaf	-0.024497358
129	0xbdf5d291	-0.12003053
130	0xbe052914	-0.13003951
131	0x3c9c7deb	0.019103011
132	0xbc465631	-0.012105511
133	0xbb816261	-0.0039484953
134	0xbd0747ad	-0.03302734
135	0xbe2cb22d	-0.16864844
136	0x3c3b5b3c	0.011435326
137	0xbc9181b9	-0.017762052
138	0x3b6eb356	0.003642281
139	0xbdc0f914	-0.09422508
140	0xbcf62fe7	-0.030052138
141	0xbe2b35f7	-0.16719805
142	0xbcb71bc2	-0.022352103
143	0xbd8b9ead	-0.068173744
144	0xbd9c69f8	-0.076373994
145	0xbd86783b	-0.06565901
146	0xbd1839e6	-0.03716459
147	0xbc8147eb	-0.015781363
148	0xbcbe4dd0	-0.023230463
149	0x3d9bd8b7	0.076096945
150	0xbd3b6f95	-0.04576071
151	0xbda473ea	-0.08029921
152	0xbd2643f1	-0.040592138
153	0x3d31d44c	0.043415353
154	0xbd619305	-0.05507185
155	0xbcb50028	-0.022094801
156	0xbccb77e7	-0.024837447
157	0xbd3b9ecd	-0.04580574
158	0xbddf0d0b	-0.108911596
159	0xbda12554	-0.07868448
160	0xbd524f44	-0.051345125
161	0xbc8d8c2b	-0.017278751
162	0xbe04e2c5	-0.1297713
163	0xbc79fe7f	-0.0152584305
164	0xbc95cd11	-0.01828626
165	0xbe13cb40	-0.14433002
166	0xbe89557d	-0.26823035
167	0x3d334e88	0.043776065
168	0xbda2ba0d	-0.079456426
169	0xbda3ccb3	-0.07998028
170	0xbd39579b	-0.045249563
171	0x3d77f6a2	0.06053794
172	0x3d33ec70	0.043926656
173	0xbec92d57	-0.39292404
174	0xbd5ad8ae	-0.053429298
175	0x3d9a391c	0.07530424
176	0xbb2f11b1	-0.0026713426
177	0xbdaa7db6	-0.08324759
178	0xbe308240	-0.17237186
179	0x3d7a7d1f	0.06115448
180	0xbd322377	-0.043490853
181	0xbd777438	-0.06041357
182	0x3d4fb82a	0.050712742
183	0x3d32fc06	0.04369738
184	0xbdb2a25f	-0.08722376
185	0xbd3a2853	-0.045448612
186	0x3cad186d	0.021129811
187	0xbda7d1a6	-0.08194284
188	0xbe181402	-0.14851382
189	0xbda68fc7	-0.08132892
190	0xbd9447ea	-0.07240279
191	0xbe756718	-0.23965108
192	0x3dcd9f88	0.10040194
193	0xbdb720a6	-0.08941774
194	0xbb8a577f	-0.004221856
195	0xbe4aaaa4	-0.19791657
196	0xbd5a913a	-0.053361155
197	0xbd8aa9eb	-0.067706905
198	0xbe1e51ca	-0.15460888
199	0x3d98bb82	0.07457639
200	0xbdb68b66	-0.08913307
201	0xbdcad86b	-0.0990456
202	0x3ce79ad3	0.028272068
203	0x3da3a190	0.079898
204	0xbdcb4c30	-0.09926641
205	0xbdcdfafa	-0.100576356
206	0x3d4d4740	0.050116777
207	0xbd093eba	-0.033507086
208	0xbca8c12c	-0.020599924
209	0x3d7b3dd7	0.061338272
210	0x3cf814fe	0.030283447
211	0xbdbb6df7	-0.091518335
212	0xbdca6076	-0.0988168
213	0xbdc65f14	-0.096861035
214	0xbd81e836	-0.06343119
215	0xbdbcc491	-0.092171796
216	0xbdf71e9b	-0.120663844
217	0xbd0c6842	-0.034279115
218	0x3d7b2d30	0.06132239
219	0xbbe058ab	-0.0068465075
220	0x3dac1850	0.08403075
221	0x3c5c0392	0.013428586
222	0xbde5fad0	-0.11229479
223	0xbc85ebe3	-0.016347831
224	0xbd9235c8	-0.07139164
225	0xbdcc60fe	-0.09979437
226	0xbd0fde44	-0.03512408
227	0xbc957161	-0.01824254
228	0xbcc278a5	-0.023739168
229	0x3cda292c	0.02663096
230	0x3c48c115	0.012253066
231	0x3d55d8bb	0.052208643
232	0xbdf26294	-0.118352085
233	0x3d589012	0.05287177
234	0xbd5a9181	-0.05336142
235	0xbb1bc5ce	-0.0023769024
236	0x3cf11939	0.029430972
237	0xbd1d6227	-0.038423683
238	0xbd3b58c9	-0.04573897
239	0xbd05804b	-0.032593053
240	0xbd85a0ce	-0.06524812
241	0xbe00df46	-0.12585172
242	0x3d072716	0.03299626
243	0x3d34e8e7	0.044167425
244	0xb9479d81	-0.00019036794
245	0x3d057da2	0.032590516
246	0xbc58700a	-0.013210306
247	0xbc648da8	-0.013949789
248	0x3d6ec336	0.058291636
249	0x3d22fd67	0.039792445
250	0x3d772867	0.060341265
251	0x3ca9b9ea	0.020718534
252	0x3c03ab69	0.008036473
253	0xbaaf4919	-0.0013373225
254	0x3c959a5f	0.018262086
255	0x3d314a03	0.043283474

lstm.weight_ih_l1 f4 [512, 128]
0	0xbdb129eb	-0.08650573
1	0x3d1cb292	0.038256235
2	0xbdbda353	-0.09259667
3	0x3d423260	0.047411323
4	0xbd8aa2dc	-0.06769344
5	0x3cb5f181	0.022209885
6	0xbd8ff258	-0.07028645
7	0x3d50f7a8	0.051017433
8	0x3c08814b	0.008331607
9	0xbc85b8b8	-0.016323432
10	0x3d518e28	0.05116096
11	0x3df4b12a	0.11947854
12	0x3d8e71c1	0.069552906
13	0x3dd42ff6	0.1036071
14	0x3d3b5504	0.045735374
15	0x3cd69bc8	0.02619733
16	0xbd9a37ea	-0.07530196
17	0xbd481773	-0.048850488
18	0x3c31db15	0.010855456
19	0xbb9bcdb5	-0.004754747
20	0xbd56e00b	-0.052459758
21	0x3d3f39b4	0.04668589
22	0x3d6663f7	0.056247678
23	0x3db367f6	0.08760063
24	0x3d861c36	0.065483496
25	0xbd4a37f1	-0.049369756
26	0xbc337534	-0.010953236
27	0xbd09f6e9	-0.033682737
28	0x3d3805b0	0.0449273
29	0xbd1f90dd	-0.03895651
30	0xbd9e776f	-0.07737624
31	0x3ca03e56	0.019560974
32	0x3d726f05	0.059187908
33	0x3b82d04a	0.003992115
34	0x3cb01389	0.02149369
35	0x3cf7ca95	0.030247966
36	0x3d8a8c7d	0.06765077
37	0xbdaca6c1	-0.08430243
38	0x3d9fb756	0.077986404
39	0x3d6e5568	0.05818692
40	0xbc7836a7	-0.015149749
41	0xbda51ebe	-0.08062504
42	0xbd8cfb01	-0.06883813
43	0xbca6e35b	-0.020372083
44	0x3db05cea	0.08611472
45	0x3b26095f	0.0025335175
46	0x3cf799bf	0.030224679
47	0xbcc618de	-0.02418178
48	0x3d327b36	0.043574534
49	0xbd21aaca	-0.039469518
50	0x3d88a4fb	0.066720925
51	0x3d608097	0.054810133
52	0x3d5d2833	0.053993415
53	0xbdcc4596	-0.0997421
54	0x3d8acfdd	0.06777928
55	0x3d4785c1	0.048711542
56	0xbd59cb06	-0.053172134
57	0x3c6a52ae	0.014301939
58	0xbddfe774	-0.10932818
59	0x3bc86db8	0.006116595
60	0x3db9adf4	0.09066382
61	0x3d7ce6ca	0.061743535
62	0x3d8f3ea8	0.069943726
63	0xbb82df25	-0.003993886
64	0x3dc8920d	0.09793482
65	0xbd68a084	-0.056793705
66	0x3cd9a5b2	0.026568267
67	0x3d4de734	0.05026932
68	0x3da7a421	0.08185602
69	0x3d00f4be	0.031483404
70	0xbcab0788	-0.020877615
71	0x3db57873	0.088608645
72	0x3d0a36ba	0.033743598
73	0xbd0c127d	-0.03419732
74	0xbd435a88	-0.04769376
75	0xbd2e3d03	-0.042538654
76	0xbdb55ff9	-0.08856196
77	0x3c02e678	0.007989518
78	0x3c067056	0.008205494
79	0x3d67f1fc	0.05662726
80	0x3d1e0d2b	0.038586777
81	0x3d67fe34	0.05663891
82	0x3d5495f9	0.051900838
83	0x3d8f3b23	0.06993701
84	0x3c14ca38	0.009081416
85	0x3d6ecc33	0.05830021
86	0xbd67a425	-0.056553025
87	0xbd96e514	-0.07367912
88	0x3c11c0af	0.008896037
89	0xbd466f60	-0.04844606
90	0xbd57b766	-0.052665137
91	0x3dbfe1a7	0.09369212
92	0x3d61d903	0.0551386
93	0xbd1d3e1b	-0.038389307
94	0x3d78311f	0.06059372
95	0xbd8da54b	-0.06916293
96	0x3c92c103	0.0179143
97	0xbd39ce48	-0.04536274
98	0xbd0d3509	-0.034474406
99	0x3d5fb9b8	0.054620475
100	0x3d840ea0	0.06448102
101	0xbd813cf7	-0.06310456
102	0xbc392cc2	-0.011302175
103	0xbd438d9d	-0.047742475
104	0xbd4e7d8d	-0.050412703
105	0xbc460a97	-0.012087486
106	0xbd8ce041	-0.068787105
107	0xbd678e4e	-0.056532197
108	0xbd90d26d	-0.070713855
109	0x3bd21a0d	0.006411797
110	0xbcc57d0e	-0.024107482
111	0xbdc5f1c9	-0.096652575
112	0xbcf26632	-0.029589746
113	0xbc825946	-0.01591171
114	0x3c3d3130	0.011547372
115	0x3dbb0e2f	0.09133565
116	0x3d45b368	0.0482668
117	0x3d7047bb	0.058662158
118	0xbd4a4a30	-0.049387157
119	0x3d7c5256	0.06160196
120	0xbde30c06	-0.11086278
121	0x3d1225b5	0.03568049
122	0x3d3942f7	0.04522988
123	0xbb799456	-0.00380828
124	0x3d9fb61e	0.07798408
125	0xbdb05a56	-0.0861098
126	0x3d9a8a26	0.07545881
127	0x3d2a3de1	0.04156292
128	0x3d9824d1	0.07428897
129	0xbd72b0e5	-0.05925073
130	0x3d9757eb	0.07389816
131	0xbd94c387	-0.072638564
132	0x3ccf906d	0.025337422
133	0xbdc848ff	-0.09779548
134	0xbd9bfd68	-0.07616693
135	0x3d727098	0.05918941
136	0x3ad7008f	0.0016403365
137	0xbd8614e2	-0.06546952
138	0xbb94b68e	-0.004538364
139	0xbd90e904	-0.07075694
140	0x3dbbfab5	0.09178678
141	0x3da8288c	0.08210859
142	0x3d654180	0.05597067
143	0x3d6529c2	0.055948026
144	0xbda14260	-0.07873988
145	0xbd937791	-0.0720054
146	0xbaa74119	-0.001276049
147	0xbd244c22	-0.04011167
148	0xbd682197	-0.05667266
149	0x3cf12101	0.029434683
150	0xbda31519	-0.079630084
151	0x3d80a5b1	0.06281603
152	0x3baa5cb0	0.0051990375
153	0xbc6675e0	-0.0140661895
154	0xbd0c7de1	-0.034299735
155	0xbd656263	-0.056002032
156	0xbd5f572f	-0.054526504
157	0xbdf0951b	-0.117471896
158	0x3d8d53c9	0.069007464
159	0xbd989370	-0.074499965
160	0x3c5fb726	0.013654506
161	0x3d84a6f0	0.06477153
162	0x3cd5873c	0.026065461
163	0xbc945737	-0.018107994
164	0x3d383063	0.04496802
165	0x3d41fb02	0.04735852
166	0x3d0bc4bb	0.034123164
167	0x3da1d184	0.0790129
168	0xbd64463d	-0.055731047
169	0xbdc9c9af	-0.09852921
170	0x3dac54cf	0.084146135
171	0x3c8149f6	0.015782338
172	0xbcf84509	-0.030306356
173	0x3d1e3e9c	0.038633928
174	0x3d711a0d	0.058862735
175	0xbc6a0519	-0.014283442
176	0xbb9c8982	-0.0047771344
177	0xbd8ff5c9	-0.07029302
178	0x3dfa9240	0.12234926
179	0xbbeef8cf	-0.007292844
180	0xbc8a38b3	-0.01687274
181	0xbbcc7357	-0.0062393355
182	0xbdada1d4	-0.08478132
183	0x3ba8a4bf	0.0051465924
184	0x3b9ba1e5	0.004749524
185	0xbd050cc4	-0.032482877
186	0xbdc8f0b7	-0.09811538
187	0x3dd69c43	0.10479023
188	0xbc3a9de9	-0.011390188
189	0x3d017073	0.03160138
190	0xbb64aeb9	-0.0034894182
191	0xbcb39f69	-0.021926599
192	0xbdfd9860	-0.12382579
193	0x3c3c7ab2	0.011503862
194	0x3d3a2270	0.045443
195	0x3c4277b6	0.011869362
196	0x3dbdb2d8	0.09262627
197	0xbd1025e7	-0.035192396
198	0xbd84dea4	-0.06487778
199	0xbd0c9957	-0.034325924
200	0xbdf591a4	-0.11990669
201	0xbd67c5cb	-0.056585114
202	0x3d48969b	0.048971754
203	0xbd479dcb	-0.048734467
204	0x3da66a7c	0.08125779
205	0x3d1c8c15	0.03821953
206	0x3d9793ea	0.07401259
207	0xbc01814b	-0.007904361
208	0x3d393c9a	0.04522381
209	0xbd2afc33	-0.041744422
210	0x3c12f166	0.008968687
211	0xbda97a1e	-0.08275245
212	0xbdb51682	-0.08842184
213	0xbdb814f5	-0.08988372
214	0x3d173235	0.036913116
215	0xbd643030	-0.055710018
216	0x3bcf763f	0.0063312347
217	0x3cc06e01	0.023489954
218	0xba85182e	-0.0010154301
219	0x3cd0ae0b	0.025473615
220	0x3deeedc1	0.11666442
221	0xbdc171a9	-0.09445507
222	0xbce25e56	-0.027632874
223	0xbdd911e5	-0.10599116
224	0xbc540f3b	-0.012943084
225	0x3c9e4e1f	0.01932436
226	0xbcf3465f	-0.029696641
227	0xbdf4ae03	-0.119472526
228	0x3dac3caf	0.08410012
229	0x3d675597	0.05647811
230	0xbd07c379	-0.0331454
231	0x3cebeb34	0.028798677
232	0xbcb33050	-0.021873623
233	0xbd5da230	-0.054109752
234	0x3d6f837f	0.058475014
235	0xbc31c30a	-0.010849724
236	0xbda62805	-0.08113102
237	0x3d46e3f9	0.048557255
238	0x3d9223d9	0.07135744
239	0x3cc90b4f	0.024541525
240	0xbbdbfa2a	-0.0067131715
241	0xbd55451b	-0.052067857
242	0x3c5b886e	0.013399227
243	0xbbcfdc3c	-0.0063433927
244	0x3cd85126	0.026405882
245	0x3d6d7fd0	0.05798322
246	0x3d3dd440	0.046344995
247	0xbd275864	-0.04085578
248	0x3d997436	0.074928686
249	0xbd802bf0	-0.062583804
250	0xbd0a6366	-0.0337862
251	0x3d26dd2d	0.040738273
252	0x3df3db67	0.11907082
253	0x3d63f4d6	0.055653416
254	0x3da61d69	0.08111078
255	0xbcf0e9cf	-0.029408364

lstm.weight_hh_l1 f4 [512, 128]
0	0x3d23006a	0.039795317
1	0xbccc5515	-0.024942914
2	0xbcb900f0	-0.022583455
3	0xbd1d902c	-0.03846757
4	0x3d7162a0	0.058931947
5	0xbd0ee081	-0.034882072
6	0xbc9f026d	-0.019410336
7	0xbc9c6d4c	-0.019095086
8	0xbab0e4da	-0.0013495937
9	0x3d1a3468	0.037647635
10	0x3d5b7a7c	0.053583607
11	0x3db4b5db	0.08823749
12	0x3db3158f	0.08744346
13	0x3d4bb36b	0.049731653
14	0x3cd0ebae	0.025503006
15	0x3cc77bce	0.024351027
16	0xbd9f5797	-0.07780378
17	0xbb916c33	-0.004437947
18	0x3d4bd2a5	0.049761433
19	0x3c95f42a	0.018304903
20	0x3d712d53	0.058881115
21	0x3ceb0cef	0.02869269
22	0x3d3c29ec	0.045938417
23	0xbc52956b	-0.012853007
24	0x3da5e3e9	0.08100111
25	0x3baf3d9a	0.0053479197
26	0xbbf881c4	-0.0075838286
27	0x3a5080a9	0.0007953742
28	0xbc8ed201	-0.017434122
29	0x3d3d09d5	0.046151955
30	0xbccba495	-0.024858752
31	0x3d9fdbf9	0.07805628
32	0x3d4382e1	0.047732238
33	0xbd4fcb4b	-0.050730985
34	0xbd3c624f	-0.045992192
35	0x3db2fd5e	0.08739732
36	0xbc81caae	-0.015843716
37	0xbd29f071	-0.04148907
38	0xbcb293ec	-0.02179905
39	0xbc89ba51	-0.016812475
40	0xbd1f1ed7	-0.03884777
41	0xbd70ec1f	-0.058818933
42	0xbc87a0de	-0.0165562
43	0xbcea826e	-0.028626647
44	0x3dd399c8	0.10332066
45	0x3d42b588	0.047536403
46	0x3d6587c5	0.056037683
47	0x3da3b614	0.07993713
48	0xbd838338	-0.06421512
49	0x3b43015b	0.0029755447
50	0x3d79be7a	0.06097267
51	0xbd5c4e52	-0.05378563
52	0x3c852508	0.01625301
53	0x3cfdc8c8	0.030979529
54	0x3d15115b	0.036393505
55	0xbbaaccb2	-0.00521239
56	0xbd8f3c25	-0.069938935
57	0x3d6d2ad2	0.057902165
58	0xbc5fc420	-0.0136576
59	0x3dc5103c	0.09622237
60	0xbda4cd7c	-0.080470055
61	0xbda67b9b	-0.081290446
62	0x3d96a281	0.07355214
63	0x3cd4ee66	0.025992583
64	0x3d3b9e7d	0.045805443
65	0x3c0258b8	0.0079557225
66	0xbd205816	-0.039146505
67	0x3cb8891e	0.02252632
68	0xbd86f3e9	-0.06589491
69	0x3d4f19f3	0.050561856
70	0x3d312221	0.04324544
71	0x3d16e301	0.03683758
72	0xbd4097ec	-0.047019884
73	0xbd820809	-0.06349189
74	0x3d8f481c	0.06996176
75	0x3cb183b7	0.021669252
76	0x3c84c47b	0.01620697
77	0xbd469000	-0.048477173
78	0xbc879897	-0.016552253
79	0x3bc32b3e	0.0059560826
80	0x3d158002	0.03649903
81	0xbd9e54c9	-0.07731015
82	0xbd651d89	-0.05593637
83	0xbc8fe0c3	-0.01756323
84	0xbd9d6376	-0.07684986
85	0x3cf7d8d8	0.030254766
86	0xbda52ec2	-0.08065559
87	0x3d7f1a62	0.06228102
88	0xbdaf2a36	-0.08552973
89	0x3d6ced55	0.057843525
90	0x3d20c879	0.039253686
91	0x3d6b1d6f	0.057401117
92	0xbd1b267f	-0.03787851
93	0x3cb0e3a3	0.02159292
94	0x3d170010	0.036865294
95	0x3be4607c	0.0069695096
96	0xbd937484	-0.07199958
97	0x3c2b3ed2	0.010451989
98	0x3d2cf645	0.04222705
99	0xbd8cd458	-0.06876439
100	0xbcb9fa5a	-0.022702385
101	0x3d95dbf8	0.07317346
102	0x3cbf5916	0.02335791
103	0x3d887494	0.066628605
104	0xbdb70b43	-0.08937695
105	0x3c5f27d0	0.013620332
106	0xbd8048b9	-0.06263871
107	0xbd2931af	-0.041307148
108	0x3dcac7d4	0.099013954
109	0xbd6ce3b1	-0.05783433
110	0x3d804f24	0.06265095
111	0x3d348ccd	0.04407959
112	0xbd909a27	-0.07060652
113	0xbdc9ee44	-0.09859899
114	0xbc738146	-0.014862364
115	0xbd32fcb0	-0.043698013
116	0x3d21f615	0.039541323
117	0xbd15795b	-0.036492687
118	0x3da5160e	0.08060847
119	0x3d28a0e4	0.041169062
120	0xbcdc0d49	-0.026861804
121	0x3d070574	0.032964185
122	0xbb9bc3ac	-0.0047535505
123	0x3c919b5d	0.017774278
124	0x3bbd688f	0.0057802866
125	0xbd74b246	-0.059740327
126	0xbd89b68f	-0.067242734
127	0xbbce7ff7	-0.0063018757
128	0xbd2e490c	-0.04255013
129	0xbcf82aa9	-0.03029378
130	0xbd164325	-0.036685128
131	0xbdc882fe	-0.0979061
132	0xbd12ab5e	-0.03580796
133	0xbd48dab0	-0.04903668
134	0xbb619af4	-0.0034424635
135	0xbd8c498b	-0.06849965
136	0x3d1136d5	0.035452683
137	0xbdea45ff	-0.11439132
138	0xbd10d901	-0.0353632
139	0xbdbd3968	-0.09239465
140	0xbcde3ca9	-0.027128534
141	0xbce1f870	-0.027584285
142	0xbd0931e8	-0.03349486
143	0xbd2e0062	-0.042480834
144	0x3dd34e46	0.10317664
145	0x3e0094eb	0.12556808
146	0x3bd28468	0.0064244755
147	0xbdb54843	-0.088516735
148	0x3d45193a	0.04811976
149	0xbd818290	-0.06323731
150	0x3bfa1845	0.0076322877
151	0x3ca0c615	0.019625703
152	0xbc76ff47	-0.015075511
153	0xbd82a9db	-0.063800536
154	0xbd97b260	-0.07407069
155	0x3d246460	0.040134788
156	0x3c91a08d	0.017776752
157	0xbd28ecc2	-0.041241415
158	0xbdc7c497	-0.097542934
159	0xbdc7a3c5	-0.097480334
160	0x3ddab3eb	0.10678848
161	0xbdb2c173	-0.08728304
162	0xbdbad2c1	-0.09122229
163	0xbd356c36	-0.04429265
164	0x3ccec2e0	0.025239408
165	0x3d62a8b8	0.055336684
166	0x3c5f3e3d	0.013625679
167	0xbd7c0507	-0.061528232
168	0xbd1e8db7	-0.03870937
169	0xbdb95e42	-0.090511814
170	0x3d88e656	0.06684558
171	0xbd3be338	-0.04587099
172	0xbd3365e6	-0.04379835
173	0x3d2bd8d2	0.041954823
174	0xbcd8d664	-0.026469417
175	0x3c449f59	0.012000882
176	0xbd8ead2a	-0.06966622
177	0xbb0defb6	-0.0021657771
178	0xbda00c35	-0.07814828
179	0xbdcea831	-0.10090674
180	0xbd11bb1c	-0.035578832
181	0xbd760d31	-0.060071174
182	0x3d94c36c	0.07263836
183	0xbdd68db6	-0.10476248
184	0x3c05b0f7	0.0081598675
185	0x3cc1fa96	0.023679059
186	0x3d2e4c40	0.042553186
187	0x3d9bbad6	0.076039955
188	0x3ab95bd3	0.0014141746
189	0x3de8a360	0.11359286
190	0xbba3bd22	-0.0049969116
191	0x3ce6e585	0.028185615
192	0x3b6cd4fd	0.0036137693
193	0xbd5177f0	-0.051139772
194	0x3de3fbb0	0.1113199
195	0x3d44dda2	0.048062928
196	0xbc459bd5	-0.012061079
197	0xbbf73857	-0.007544558
198	0x3c9aaac1	0.01888025
199	0x3ce2957b	0.027659168
200	0xbd6d2a1c	-0.057901487
201	0xbcdc40e1	-0.026886405
202	0xbd8fd83d	-0.07023666
203	0x3cd85764	0.026408859
204	0xbd6272db	-0.055285316
205	0xbd1c3788	-0.038138896
206	0x3dc1ff04	0.094724685
207	0x3d1900bb	0.037354212
208	0x3cc35ce5	0.023848007
209	0x3d42a7d5	0.04752334
210	0xbda01be7	-0.07817822
211	0x3d649355	0.05580457
212	0x3dbf05ee	0.09327303
213	0xbc6c684a	-0.014429161
214	0x3c98492f	0.018589584
215	0x3cbc9807	0.023021711
216	0xbdad1573	-0.08451357
217	0x3d66e430	0.05636996
218	0x3d908886	0.0705729
219	0x3e49e7bb	0.19717304
220	0xbd16a7bb	-0.036781054
221	0xbd3667ea	-0.044532694
222	0x3d9f5dae	0.0778154
223	0xbd9686c9	-0.07349927
224	0xbde11906	-0.10991101
225	0x3d24c22c	0.04022424
226	0x3d45760a	0.048208274
227	0x3db5f543	0.088846706
228	0x3d380c65	0.044933695
229	0xbb341df2	-0.002748367
230	0xbd9ba8d8	-0.07600564
231	0x3de912ae	0.11380516
232	0x3cb951f6	0.02262209
233	0xbd682045	-0.0566714
234	0xbd49fcf1	-0.04931349
235	0x3d07504d	0.033035565
236	0x3d930d7e	0.07180308
237	0xbd64a117	-0.05581769
238	0xbd74dcca	-0.059780873
239	0x3c51df3d	0.012809572
240	0xbda45ffe	-0.080261216
241	0x3d47b224	0.048753873
242	0xbd6f1afa	-0.058375336
243	0x3d0a4c3a	0.0337641
244	0xbc9b7482	-0.018976454
245	0x3daf2baf	0.08553254
246	0xbd96d499	-0.073647685
247	0x3cb3d769	0.021953302
248	0x3d0489fd	0.03235816
249	0xbdb134e5	-0.08652667
250	0x3bb56d96	0.0055367453
251	0x3dcb58d7	0.09929054
252	0xbd741caa	-0.05959765
253	0xbd17445d	-0.03693043
254	0x3d3d3632	0.046194263
255	0x3d74e9fc	0.059793457

lstm.bias_ih_l1 f4 [512]
0	0x3c2d69f2	0.010584341
1	0xbc081675	-0.008306135
2	0xbc8d0407	-0.017213834
3	0xbd0b85df	-0.034063216
4	0xbdbc2a94	-0.09187809
5	0x3c8feb3e	0.017568227
6	0x3d9153a4	0.07096031
7	0xbd0d7001	-0.034530643
8	0xbd42ce53	-0.047560047
9	0x3b755e5b	0.0037440273
10	0x3d5c459b	0.05377732
11	0xbdaac8c6	-0.08339076
12	0xbcbda751	-0.023151072
13	0x3d22d6ab	0.039755505
14	0xbd867eaf	-0.06567132
15	0xbd870c6c	-0.06594166
16	0x3dce55fd	0.10074995
17	0x3da3c11c	0.07995817
18	0x3d2e0e7e	0.04249429
19	0xbca426ec	-0.02003809
20	0x3d8cc0e7	0.06872731
21	0xbd208d2a	-0.039197125
22	0x3e0145ac	0.12624234
23	0x3d92c9ac	0.07167372
24	0xbd1abbed	-0.037776876
25	0x3d94cec6	0.072660014
26	0x3d04569b	0.032309156
27	0xbd10ce77	-0.03535315
28	0x3d15f31e	0.036608808
29	0xbd169a91	-0.0367685
30	0x3ce788f0	0.02826354
31	0xbd414e62	-0.047193892
32	0x3da58efe	0.08083914
33	0x3d595c53	0.053066563
34	0x3daacfb9	0.08340401
35	0x3d738691	0.059454504
36	0xbdbf2208	-0.09332663
37	0xbd9582fd	-0.07300375
38	0x3d1050bc	0.035233244
39	0x3ccf00e7	0.025268985
40	0x3cce59bc	0.025189273
41	0x3d56b867	0.052421954
42	0xbd76c7fd	-0.060249317
43	0x3d8a1202	0.06741716
44	0x3d777d25	0.06042208
45	0x3b05cb47	0.0020415352
46	0xbd1eec73	-0.038799714
47	0x3d9985f0	0.0749625
48	0x3c8d7551	0.017267855
49	0x3cd9a282	0.026566748
50	0xbd9defe0	-0.07711768
51	0x3d27a9e7	0.040933516
52	0xbbe5fe03	-0.007018806
53	0x3bac7cce	0.0052639013
54	0x3c181623	0.009282622
55	0x3d9d8eea	0.07693274
56	0x3c55f4dc	0.013058867
57	0xbd46fe1a	-0.048582174
58	0xbd871774	-0.0659627
59	0x3d914334	0.07092896
60	0xbca1927b	-0.019723168
61	0xbd7d16e8	-0.061789423
62	0x3d77e897	0.06052455
63	0xb9ca1e63	-0.00038551082
64	0x3caf1893	0.021374023
65	0xbce21853	-0.02759949
66	0xbd990299	-0.074711986
67	0xbc01d133	-0.007923412
68	0x3da38b8c	0.07985601
69	0xbd3e5835	-0.04647084
70	0x38831842	6.251085e-05
71	0xbbca8cc1	-0.00618133
72	0x3d178cb7	0.03699943
73	0x3c108504	0.008820776
74	0xbca72b6e	-0.020406451
75	0x3b6d65bd	0.003622397
76	0x3cea027b	0.028565636
77	0x3d28a571	0.041173402
78	0x3d80bba3	0.06285789
79	0xbd65f42f	-0.056141075
80	0x3d3bbe24	0.04583563
81	0x3c9bfe9d	0.019042308
82	0x3dc495ad	0.09598861
83	0x3d8e16c7	0.06937938
84	0xba01b947	-0.0004948568
85	0x3d97ec76	0.07418148
86	0xbced0a18	-0.028935477
87	0x3d54ede0	0.051984668
88	0xbd91fb20	-0.071279764
89	0x3dcbc450	0.09949553
90	0x3d56e62c	0.052465603
91	0x3ec22a51	0.3792291
92	0x3da39854	0.07988039
93	0x3d727bc7	0.059200075
94	0x3d9c62d9	0.07636041
95	0xbd41429b	-0.04718266
96	0xbc3d3199	-0.0115474695
97	0xbcc2f3f4	-0.023797967
98	0x3dabeb3a	0.08394475
99	0x3db4a4f8	0.08820528
100	0xbcc6eaed	-0.024281943
101	0x3ca5584a	0.020183701
102	0xbd894037	-0.06701701
103	0x3d7f7eb0	0.062376678
104	0xbd7d6cb3	-0.06187124
105	0xbd8472ef	-0.06467234
106	0x3c95fdbe	0.01830947
107	0x3d82f4cb	0.06394347
108	0xbcb90c99	-0.022589015
109	0x3d66dd22	0.056363232
110	0xbd5f6176	-0.054536305
111	0xbca56951	-0.02019182
112	0x3d68920e	0.056779914
113	0xbd7b64f6	-0.06137558
114	0xbca1bd9a	-0.01974373
115	0xbd2011d5	-0.039079506
116	0xbd8e547e	-0.06949709
117	0xbc8bfd7a	-0.01708864
118	0x3d83d504	0.06437114
119	0xbd57ead5	-0.052714188
120	0x3c922b42	0.017842893
121	0x3dca7f4e	0.09887563
122	0xbd68d22d	-0.056841064
123	0xbd674a50	-0.056467354
124	0x3dae77e8	0.08518964
125	0x3d14bc08	0.036312133
126	0x3c31817c	0.010834094
127	0x3dd5490a	0.10414322
128	0xbd834d6c	-0.064112514
129	0xbd95f29b	-0.07321664
130	0x3da97ffc	0.08276364
131	0x3ca497fd	0.020092005
132	0xbdc6540e	-0.09684001
133	0x3d7cdc5f	0.0617336
134	0x3d166773	0.03671975
135	0x3c360e81	0.011111856
136	0xbd9cff0f	-0.07665836
137	0xbd2c6453	-0.042087864
138	0x3c89cbf1	0.01682088
139	0xbd79fb67	-0.06103077
140	0xbc89a698	-0.01680307
141	0xbd84c65d	-0.06483147
142	0x3d712aaa	0.05887858
143	0xbc795faa	-0.015220562
144	0x3cb92bb4	0.022603847
145	0x3db7ba2a	0.08971055
146	0xbcf0c197	-0.029389186
147	0x3b3c4ab3	0.0028731048
148	0xbd92b302	-0.07163049
149	0xbb86a676	-0.004109199
150	0xbd9a5cbc	-0.07537219
151	0x3d4c28fd	0.049843777
152	0x3d8c444c	0.06848964
153	0xbd068263	-0.03283919
154	0x3db53dd0	0.088496804
155	0x3db77b5d	0.089590766
156	0x3d21d41b	0.03950892
157	0x3d5c010a	0.05371193
158	0xbd9778b3	-0.073960684
159	0x3db8e8cc	0.090287775
160	0xbd75c2d9	-0.060000274
161	0xbd9dd2ff	-0.0770626
162	0xbda8877d	-0.08228967
163	0x3d9915d9	0.0747487
164	0x3d75500d	0.059890795
165	0xbd6396f3	-0.05556388
166	0xbccf89da	-0.025334287
167	0x3d200088	0.039063007
168	0x3d8274ad	0.063699104
169	0x3c4cf374	0.012509216
170	0x3d094c28	0.033519894
171	0xbdb9de21	-0.09075571
172	0xbd62dedb	-0.055388313
173	0xbd24b093	-0.040207457
174	0x3d4406a3	0.04785789
175	0xbc1dd7de	-0.009633986
176	0x3d4b2966	0.049600028
177	0x3d79aa6f	0.060953554
178	0x3d6ba3b9	0.057529185
179	0x3d11788e	0.03551536
180	0xbce779e8	-0.028256372
181	0x3db35773	0.08756914
182	0x3c81c1c9	0.015839474
183	0xbca07704	-0.019588001
184	0x3d27a188	0.040925533
185	0x3d11aee8	0.035567194
186	0xbdb13e4b	-0.086544596
187	0xbdcc4e0a	-0.09975822
188	0x3d8b6e08	0.06808096
189	0x3da70b51	0.08156455
190	0xbc2d73a8	-0.010586657
191	0xbc83c88a	-0.016086835
192	0x3d71214c	0.058869645
193	0xbd7f3c6f	-0.062313493
194	0xbd3b4e78	-0.04572913
195	0x3ce8531a	0.028359938
196	0xbc70fdc3	-0.014708939
197	0xbc6b2233	-0.014351415
198	0xbd76936c	-0.060199186
199	0x3c5f135e	0.013615457
200	0x3d303527	0.04301944
201	0xbd0ce7be	-0.034400694
202	0xbd841a60	-0.06450343
203	0xbd53aa76	-0.051676236
204	0x3cfe0d0e	0.031012084
205	0xbd9276c0	-0.07151556
206	0xbd3e4fb6	-0.046462737
207	0x3c80611e	0.01567131
208	0x3d47e12a	0.048798718
209	0xbdc38236	-0.0954632
210	0xbd81928a	-0.06326778
211	0x3d8a8a1b	0.06764623
212	0x3cc05616	0.023478549
213	0x3d5f764a	0.05455617
214	0xbc0494f6	-0.008092156
215	0x3d8e8c2c	0.069603294
216	0xbd48a8f8	-0.048989266
217	0xbc46543d	-0.012105045
218	0xbdcfb587	-0.101420455
219	0xbd378b49	-0.044810567
220	0x3d3dcff4	0.046340898
221	0x3d2ff5e8	0.042959124
222	0x3d2cd883	0.04219867
223	0xbd562c91	-0.052288596
224	0xbd25701c	-0.04039012
225	0x3ca5d319	0.02024226
226	0xbd2f657a	-0.042821385
227	0x3cb86ea7	0.0225137
228	0x3cfb5fad	0.03068527
229	0x3d8b0d78	0.06789678
230	0xbd0e4e72	-0.03474278
231	0xbd721c71	-0.059109155
232	0x3db1b311	0.08676732
233	0xbda9e286	-0.08295159
234	0xbc59d036	-0.01329427
235	0xbcf478e7	-0.029842807
236	0xbd4f4908	-0.050606757
237	0xbda2090e	-0.07911883
238	0x3ba5d7b7	0.0050611156
239	0x3d1bbb37	0.03802034
240	0xbd43f374	-0.047839597
241	0xbddafee8	-0.10693151
242	0xbc6c71aa	-0.0144313965
243	0xbda60bdd	-0.081077315
244	0xbc73d283	-0.014881733
245	0xbb6c1d22	-0.0036028107
246	0xbca64668	-0.020297244
247	0xbd2599af	-0.040429767
248	0x3cc48568	0.023989394
249	0x3d10bec9	0.035338197
250	0xbd269d28	-0.04067722
251	0x3db88275	0.09009258
252	0xbc83bbee	-0.016080823
253	0x3cb4ecfd	0.022085661
254	0xbce15483	-0.027506119
255	0xbd7ac4b5	-0.06122275
